…
2017-10-24 16:54:37.187851: I tensorflow/core/common_runtime/gpu/gpu_device.cc:961] DMA: 0 
2017-10-24 16:54:37.187865: I tensorflow/core/common_runtime/gpu/gpu_device.cc:971] 0:   Y 
2017-10-24 16:54:37.187884: I tensorflow/core/common_runtime/gpu/gpu_device.cc:1030] Creating TensorFlow device (/gpu:0) -> (device: 0, name: GRID K520, pci bus id: 0000:00:03.0)
(101396, 12)
Model is created and compiled..
_________________________________________________________________
Layer (type)                 Output Shape              Param #   
=================================================================
lambda_1 (Lambda)            (None, 480, 640, 3)       0         
_________________________________________________________________
conv2d_1 (Conv2D)            (None, 240, 320, 24)      1824      
_________________________________________________________________
activation_1 (Activation)    (None, 240, 320, 24)      0         
_________________________________________________________________
conv2d_2 (Conv2D)            (None, 120, 160, 36)      7812      
_________________________________________________________________
activation_2 (Activation)    (None, 120, 160, 36)      0         
_________________________________________________________________
conv2d_3 (Conv2D)            (None, 60, 80, 48)        15600     
_________________________________________________________________
activation_3 (Activation)    (None, 60, 80, 48)        0         
_________________________________________________________________
conv2d_4 (Conv2D)            (None, 30, 40, 64)        27712     
_________________________________________________________________
activation_4 (Activation)    (None, 30, 40, 64)        0         
_________________________________________________________________
conv2d_5 (Conv2D)            (None, 15, 20, 64)        36928     
_________________________________________________________________
flatten_1 (Flatten)          (None, 19200)             0         
_________________________________________________________________
activation_5 (Activation)    (None, 19200)             0         
_________________________________________________________________
dense_1 (Dense)              (None, 256)               4915456   
_________________________________________________________________
activation_6 (Activation)    (None, 256)               0         
_________________________________________________________________
dense_2 (Dense)              (None, 128)               32896     
_________________________________________________________________
activation_7 (Activation)    (None, 128)               0         
_________________________________________________________________
dense_3 (Dense)              (None, 64)                8256      
_________________________________________________________________
activation_8 (Activation)    (None, 64)                0         
_________________________________________________________________
dense_4 (Dense)              (None, 1)                 65        
=================================================================
Total params: 5,046,549
Trainable params: 5,046,549
Non-trainable params: 0
_________________________________________________________________
Epoch 1/10
   1/2000 [..............................] - ETA: 5281s - loss: 0.0751   2/2000 [...................
…
