…
2017-10-25 18:36:41.079241: I tensorflow/core/common_runtime/gpu/gpu_device.cc:961] DMA: 0 
2017-10-25 18:36:41.079256: I tensorflow/core/common_runtime/gpu/gpu_device.cc:971] 0:   Y 
2017-10-25 18:36:41.079276: I tensorflow/core/common_runtime/gpu/gpu_device.cc:1030] Creating TensorFlow device (/gpu:0) -> (device: 0, name: GRID K520, pci bus id: 0000:00:03.0)
(101396, 12)
Model is created and compiled..
_________________________________________________________________
Layer (type)                 Output Shape              Param #   
=================================================================
conv2d_1 (Conv2D)            (None, 240, 320, 24)      1824      
_________________________________________________________________
activation_1 (Activation)    (None, 240, 320, 24)      0         
_________________________________________________________________
conv2d_2 (Conv2D)            (None, 120, 160, 36)      21636     
_________________________________________________________________
activation_2 (Activation)    (None, 120, 160, 36)      0         
_________________________________________________________________
conv2d_3 (Conv2D)            (None, 60, 80, 48)        43248     
_________________________________________________________________
activation_3 (Activation)    (None, 60, 80, 48)        0         
_________________________________________________________________
conv2d_4 (Conv2D)            (None, 30, 40, 64)        27712     
_________________________________________________________________
activation_4 (Activation)    (None, 30, 40, 64)        0         
_________________________________________________________________
conv2d_5 (Conv2D)            (None, 15, 20, 64)        36928     
_________________________________________________________________
flatten_1 (Flatten)          (None, 19200)             0         
_________________________________________________________________
activation_5 (Activation)    (None, 19200)             0         
_________________________________________________________________
dense_1 (Dense)              (None, 512)               9830912   
_________________________________________________________________
activation_6 (Activation)    (None, 512)               0         
_________________________________________________________________
dense_2 (Dense)              (None, 256)               131328    
_________________________________________________________________
activation_7 (Activation)    (None, 256)               0         
_________________________________________________________________
dense_3 (Dense)              (None, 128)               32896     
_________________________________________________________________
activation_8 (Activation)    (None, 128)               0         
_________________________________________________________________
dense_4 (Dense)              (None, 1)                 129       
=================================================================
Total params: 10,126,613
Trainable params: 10,126,613
Non-trainable params: 0
_________________________________________________________________
Epoch 1/15
   1/2000 [..............................] - ETA: 5807s - loss: 12.3508   2/2000 [................
…
