…
2017-10-25 11:48:39.820101: I tensorflow/core/common_runtime/gpu/gpu_device.cc:961] DMA: 0 
2017-10-25 11:48:39.820111: I tensorflow/core/common_runtime/gpu/gpu_device.cc:971] 0:   Y 
2017-10-25 11:48:39.820125: I tensorflow/core/common_runtime/gpu/gpu_device.cc:1030] Creating TensorFlow device (/gpu:0) -> (device: 0, name: GRID K520, pci bus id: 0000:00:03.0)
(101396, 12)
_________________________________________________________________
Layer (type)                 Output Shape              Param #   
=================================================================
conv2d_1 (Conv2D)            (None, 240, 320, 24)      1824      
_________________________________________________________________
conv2d_2 (Conv2D)            (None, 120, 160, 24)      14424     
_________________________________________________________________
activation_1 (Activation)    (None, 120, 160, 24)      0         
_________________________________________________________________
conv2d_3 (Conv2D)            (None, 60, 80, 36)        7812      
_________________________________________________________________
activation_2 (Activation)    (None, 60, 80, 36)        0         
_________________________________________________________________
conv2d_4 (Conv2D)            (None, 30, 40, 48)        15600     
_________________________________________________________________
activation_3 (Activation)    (None, 30, 40, 48)        0         
_________________________________________________________________
conv2d_5 (Conv2D)            (None, 15, 20, 64)        27712     
_________________________________________________________________
activation_4 (Activation)    (None, 15, 20, 64)        0         
_________________________________________________________________
conv2d_6 (Conv2D)            (None, 8, 10, 64)         36928     
_________________________________________________________________
flatten_1 (Flatten)          (None, 5120)              0         
_________________________________________________________________
activation_5 (Activation)    (None, 5120)              0         
_________________________________________________________________
dense_1 (Dense)              (None, 512)               2621952   
_________________________________________________________________
activation_6 (Activation)    (None, 512)               0         
_________________________________________________________________
dense_2 (Dense)              (None, 128)               65664     
_________________________________________________________________
activation_7 (Activation)    (None, 128)               0         
_________________________________________________________________
dense_3 (Dense)              (None, 64)                8256      
_________________________________________________________________
activation_8 (Activation)    (None, 64)                0         
_________________________________________________________________
dense_4 (Dense)              (None, 1)                 65        
=================================================================
Total params: 2,800,237
Trainable params: 2,800,237
Non-trainable params: 0
_________________________________________________________________
Epoch 1/15
   1/2000 [..............................] - ETA: 1905s - loss: 0.0060   3/2000 [...................
…
