{"class_name": "Sequential", "keras_version": "1.0.8", "config": [{"class_name": "LSTM", "config": {"inner_activation": "hard_sigmoid", "trainable": true, "inner_init": "orthogonal", "output_dim": 64, "unroll": false, "consume_less": "cpu", "init": "glorot_uniform", "dropout_U": 0.0, "input_dtype": "float32", "batch_input_shape": [null, null, 50], "input_length": null, "dropout_W": 0.0, "activation": "tanh", "stateful": false, "b_regularizer": null, "U_regularizer": null, "name": "lstm_1", "go_backwards": false, "input_dim": 50, "return_sequences": true, "W_regularizer": null, "forget_bias_init": "one"}}, {"class_name": "LSTM", "config": {"U_regularizer": null, "name": "lstm_2", "inner_activation": "hard_sigmoid", "go_backwards": false, "activation": "tanh", "trainable": true, "unroll": false, "consume_less": "cpu", "stateful": false, "init": "glorot_uniform", "inner_init": "orthogonal", "dropout_U": 0.0, "dropout_W": 0.0, "input_dim": 64, "return_sequences": true, "b_regularizer": null, "W_regularizer": null, "output_dim": 64, "forget_bias_init": "one", "input_length": null}}, {"class_name": "LSTM", "config": {"U_regularizer": null, "name": "lstm_3", "inner_activation": "hard_sigmoid", "go_backwards": false, "activation": "tanh", "trainable": true, "unroll": false, "consume_less": "cpu", "stateful": false, "init": "glorot_uniform", "inner_init": "orthogonal", "dropout_U": 0.0, "dropout_W": 0.0, "input_dim": 64, "return_sequences": true, "b_regularizer": null, "W_regularizer": null, "output_dim": 64, "forget_bias_init": "one", "input_length": null}}, {"class_name": "TimeDistributed", "config": {"layer": {"class_name": "Dense", "config": {"W_constraint": null, "b_constraint": null, "name": "dense_1", "activity_regularizer": null, "trainable": true, "init": "glorot_uniform", "bias": true, "input_dim": null, "b_regularizer": null, "W_regularizer": null, "activation": "relu", "output_dim": 128}}, "trainable": true, "name": "timedistributed_1"}}, {"class_name": "TimeDistributed", "config": {"layer": {"class_name": "Dense", "config": {"W_constraint": null, "b_constraint": null, "name": "dense_2", "activity_regularizer": null, "trainable": true, "init": "glorot_uniform", "bias": true, "input_dim": null, "b_regularizer": null, "W_regularizer": null, "activation": "linear", "output_dim": 1}}, "trainable": true, "name": "timedistributed_2"}}]}