…
/home/ubuntu/ALVNS/steering/model.py:72: UserWarning: Update your `Conv2D` call to the Keras 2 API: `Conv2D(32, (5, 5), padding="same", strides=(2, 2))`
  model.add(Conv2D(32, (5, 5), subsample=(2, 2), padding="same"))
/home/ubuntu/ALVNS/steering/model.py:74: UserWarning: Update your `Conv2D` call to the Keras 2 API: `Conv2D(64, (5, 5), padding="same", strides=(2, 2))`
  model.add(Conv2D(64, (5, 5), subsample=(2, 2), padding="same"))
_________________________________________________________________
Layer (type)                 Output Shape              Param #   
=================================================================
lambda_1 (Lambda)            (None, 160, 320, 3)       0         
_________________________________________________________________
conv2d_1 (Conv2D)            (None, 40, 80, 16)        3088      
_________________________________________________________________
elu_1 (ELU)                  (None, 40, 80, 16)        0         
_________________________________________________________________
conv2d_2 (Conv2D)            (None, 20, 40, 32)        12832     
_________________________________________________________________
elu_2 (ELU)                  (None, 20, 40, 32)        0         
_________________________________________________________________
conv2d_3 (Conv2D)            (None, 10, 20, 64)        51264     
_________________________________________________________________
flatten_1 (Flatten)          (None, 12800)             0         
_________________________________________________________________
dropout_1 (Dropout)          (None, 12800)             0         
_________________________________________________________________
elu_3 (ELU)                  (None, 12800)             0         
_________________________________________________________________
dense_1 (Dense)              (None, 512)               6554112   
_________________________________________________________________
dropout_2 (Dropout)          (None, 512)               0         
_________________________________________________________________
elu_4 (ELU)                  (None, 512)               0         
_________________________________________________________________
dense_2 (Dense)              (None, 1)                 513       
=================================================================
Total params: 6,621,809
Trainable params: 6,621,809
Non-trainable params: 0
_________________________________________________________________
Epoch 1/10
2017-10-31 02:15:06.914625: W tensorflow/core/platform/cpu_feature_guard.cc:45] The TensorFlow library wasn't compiled to use SSE4.1 instructions, but these are available on your machine and could speed up CPU computations.
…
