…
Free memory: 3.90GiB
2017-11-01 12:04:29.046042: I tensorflow/core/common_runtime/gpu/gpu_device.cc:961] DMA: 0 
2017-11-01 12:04:29.046052: I tensorflow/core/common_runtime/gpu/gpu_device.cc:971] 0:   Y 
2017-11-01 12:04:29.046064: I tensorflow/core/common_runtime/gpu/gpu_device.cc:1030] Creating TensorFlow device (/gpu:0) -> (device: 0, name: GRID K520, pci bus id: 0000:00:03.0)
_________________________________________________________________
Layer (type)                 Output Shape              Param #   
=================================================================
lambda_1 (Lambda)            (None, 160, 320, 3)       0         
_________________________________________________________________
conv2d_1 (Conv2D)            (None, 40, 80, 16)        3088      
_________________________________________________________________
elu_1 (ELU)                  (None, 40, 80, 16)        0         
_________________________________________________________________
conv2d_2 (Conv2D)            (None, 20, 40, 32)        12832     
_________________________________________________________________
elu_2 (ELU)                  (None, 20, 40, 32)        0         
_________________________________________________________________
conv2d_3 (Conv2D)            (None, 10, 20, 64)        51264     
_________________________________________________________________
flatten_1 (Flatten)          (None, 12800)             0         
_________________________________________________________________
dropout_1 (Dropout)          (None, 12800)             0         
_________________________________________________________________
elu_3 (ELU)                  (None, 12800)             0         
_________________________________________________________________
dense_1 (Dense)              (None, 512)               6554112   
_________________________________________________________________
dropout_2 (Dropout)          (None, 512)               0         
_________________________________________________________________
elu_4 (ELU)                  (None, 512)               0         
_________________________________________________________________
dense_2 (Dense)              (None, 1)                 513       
=================================================================
Total params: 6,621,809
Trainable params: 6,621,809
Non-trainable params: 0
_________________________________________________________________
Epoch 1/10
   1/3000 [..............................] - ETA: 6826s - loss: 0.1117   3/3000 [....................
…
