Using TensorFlow backend.
input length
101396
.
.
.
.
.
.
.
.
.
.
(33809, 12)
(33809, 12)
/home/ubuntu/ALVNS/steering/model.py:61: UserWarning: Update your `Model` call to the Keras 2 API: `Model(inputs=Tensor("in..., outputs=Tensor("de...)`
  model = Model(input=inputs, output=y)
_________________________________________________________________
Layer (type)                 Output Shape              Param #   
=================================================================
input_1 (InputLayer)         (None, 256, 256, 3)       0         
_________________________________________________________________
conv2d_1 (Conv2D)            (None, 256, 256, 32)      896       
_________________________________________________________________
max_pooling2d_1 (MaxPooling2 (None, 128, 128, 32)      0         
_________________________________________________________________
dropout_1 (Dropout)          (None, 128, 128, 32)      0         
_________________________________________________________________
conv2d_2 (Conv2D)            (None, 128, 128, 64)      18496     
_________________________________________________________________
max_pooling2d_2 (MaxPooling2 (None, 64, 64, 64)        0         
_________________________________________________________________
dropout_2 (Dropout)          (None, 64, 64, 64)        0         
_________________________________________________________________
conv2d_3 (Conv2D)            (None, 64, 64, 128)       73856     
_________________________________________________________________
max_pooling2d_3 (MaxPooling2 (None, 32, 32, 128)       0         
_________________________________________________________________
dropout_3 (Dropout)          (None, 32, 32, 128)       0         
_________________________________________________________________
flatten_1 (Flatten)          (None, 131072)            0         
_________________________________________________________________
dense_1 (Dense)              (None, 512)               67109376  
_________________________________________________________________
dropout_4 (Dropout)          (None, 512)               0         
_________________________________________________________________
dense_2 (Dense)              (None, 256)               131328    
_________________________________________________________________
dropout_5 (Dropout)          (None, 256)               0         
_________________________________________________________________
dense_3 (Dense)              (None, 1)                 257       
=================================================================
Total params: 67,334,209
Trainable params: 67,334,209
Non-trainable params: 0
_________________________________________________________________
Epoch 1/8
2017-10-30 01:48:58.638589: W tensorflow/core/platform/cpu_feature_guard.cc:45] The TensorFlow library wasn't compiled to use SSE4.1 instructions, but these are available on your machine and could speed up CPU computations.
…
